EfficientNet(
  (conv_stem): Conv2dSame(3, 24, kernel_size=(3, 3), stride=(2, 2), bias=False)
  (bn1): BatchNormAct2d(
    24, eps=0.001, momentum=0.1, affine=True, track_running_stats=True
    (drop): Identity()
    (act): SiLU(inplace=True)
  )
  (blocks): Sequential(
    (0): Sequential(
      (0): ConvBnAct(
        (conv): Conv2d(24, 24, kernel_size=(3, 3), stride=(1, 1), padding=(1, 1), bias=False)
        (bn1): BatchNormAct2d(
          24, eps=0.001, momentum=0.1, affine=True, track_running_stats=True
          (drop): Identity()
          (act): SiLU(inplace=True)
        )
        (aa): Identity()
        (drop_path): Identity()
      )
      (1): ConvBnAct(
        (conv): Conv2d(24, 24, kernel_size=(3, 3), stride=(1, 1), padding=(1, 1), bias=False)
        (bn1): BatchNormAct2d(
          24, eps=0.001, momentum=0.1, affine=True, track_running_stats=True
          (drop): Identity()
          (act): SiLU(inplace=True)
        )
        (aa): Identity()
        (drop_path): Identity()
      )
      (2): ConvBnAct(
        (conv): Conv2d(24, 24, kernel_size=(3, 3), stride=(1, 1), padding=(1, 1), bias=False)
        (bn1): BatchNormAct2d(
          24, eps=0.001, momentum=0.1, affine=True, track_running_stats=True
          (drop): Identity()
          (act): SiLU(inplace=True)
        )
        (aa): Identity()
        (drop_path): Identity()
      )
    )
    (1): Sequential(
      (0): EdgeResidual(
        (conv_exp): Conv2dSame(24, 96, kernel_size=(3, 3), stride=(2, 2), bias=False)
        (bn1): BatchNormAct2d(
          96, eps=0.001, momentum=0.1, affine=True, track_running_stats=True
          (drop): Identity()
          (act): SiLU(inplace=True)
        )
        (aa): Identity()
        (se): Identity()
        (conv_pwl): Conv2d(96, 48, kernel_size=(1, 1), stride=(1, 1), bias=False)
        (bn2): BatchNormAct2d(
          48, eps=0.001, momentum=0.1, affine=True, track_running_stats=True
          (drop): Identity()
          (act): Identity()
        )
        (drop_path): Identity()
      )
      (1): EdgeResidual(
        (conv_exp): Conv2d(48, 192, kernel_size=(3, 3), stride=(1, 1), padding=(1, 1), bias=False)
        (bn1): BatchNormAct2d(
          192, eps=0.001, momentum=0.1, affine=True, track_running_stats=True
          (drop): Identity()
          (act): SiLU(inplace=True)
        )
        (aa): Identity()
        (se): Identity()
        (conv_pwl): Conv2d(192, 48, kernel_size=(1, 1), stride=(1, 1), bias=False)
        (bn2): BatchNormAct2d(
          48, eps=0.001, momentum=0.1, affine=True, track_running_stats=True
          (drop): Identity()
          (act): Identity()
        )
        (drop_path): Identity()
      )
      (2): EdgeResidual(
        (conv_exp): Conv2d(48, 192, kernel_size=(3, 3), stride=(1, 1), padding=(1, 1), bias=False)
        (bn1): BatchNormAct2d(
          192, eps=0.001, momentum=0.1, affine=True, track_running_stats=True
          (drop): Identity()
          (act): SiLU(inplace=True)
        )
        (aa): Identity()
        (se): Identity()
        (conv_pwl): Conv2d(192, 48, kernel_size=(1, 1), stride=(1, 1), bias=False)
        (bn2): BatchNormAct2d(
          48, eps=0.001, momentum=0.1, affine=True, track_running_stats=True
          (drop): Identity()
          (act): Identity()
        )
        (drop_path): Identity()
      )
      (3): EdgeResidual(
        (conv_exp): Conv2d(48, 192, kernel_size=(3, 3), stride=(1, 1), padding=(1, 1), bias=False)
        (bn1): BatchNormAct2d(
          192, eps=0.001, momentum=0.1, affine=True, track_running_stats=True
          (drop): Identity()
          (act): SiLU(inplace=True)
        )
        (aa): Identity()
        (se): Identity()
        (conv_pwl): Conv2d(192, 48, kernel_size=(1, 1), stride=(1, 1), bias=False)
        (bn2): BatchNormAct2d(
          48, eps=0.001, momentum=0.1, affine=True, track_running_stats=True
          (drop): Identity()
          (act): Identity()
        )
        (drop_path): Identity()
      )
      (4): EdgeResidual(
        (conv_exp): Conv2d(48, 192, kernel_size=(3, 3), stride=(1, 1), padding=(1, 1), bias=False)
        (bn1): BatchNormAct2d(
          192, eps=0.001, momentum=0.1, affine=True, track_running_stats=True
          (drop): Identity()
          (act): SiLU(inplace=True)
        )
        (aa): Identity()
        (se): Identity()
        (conv_pwl): Conv2d(192, 48, kernel_size=(1, 1), stride=(1, 1), bias=False)
        (bn2): BatchNormAct2d(
          48, eps=0.001, momentum=0.1, affine=True, track_running_stats=True
          (drop): Identity()
          (act): Identity()
        )
        (drop_path): Identity()
      )
    )
    (2): Sequential(
      (0): EdgeResidual(
        (conv_exp): Conv2dSame(48, 192, kernel_size=(3, 3), stride=(2, 2), bias=False)
        (bn1): BatchNormAct2d(
          192, eps=0.001, momentum=0.1, affine=True, track_running_stats=True
          (drop): Identity()
          (act): SiLU(inplace=True)
        )
        (aa): Identity()
        (se): Identity()
        (conv_pwl): Conv2d(192, 80, kernel_size=(1, 1), stride=(1, 1), bias=False)
        (bn2): BatchNormAct2d(
          80, eps=0.001, momentum=0.1, affine=True, track_running_stats=True
          (drop): Identity()
          (act): Identity()
        )
        (drop_path): Identity()
      )
      (1): EdgeResidual(
        (conv_exp): Conv2d(80, 320, kernel_size=(3, 3), stride=(1, 1), padding=(1, 1), bias=False)
        (bn1): BatchNormAct2d(
          320, eps=0.001, momentum=0.1, affine=True, track_running_stats=True
          (drop): Identity()
          (act): SiLU(inplace=True)
        )
        (aa): Identity()
        (se): Identity()
        (conv_pwl): Conv2d(320, 80, kernel_size=(1, 1), stride=(1, 1), bias=False)
        (bn2): BatchNormAct2d(
          80, eps=0.001, momentum=0.1, affine=True, track_running_stats=True
          (drop): Identity()
          (act): Identity()
        )
        (drop_path): Identity()
      )
      (2): EdgeResidual(
        (conv_exp): Conv2d(80, 320, kernel_size=(3, 3), stride=(1, 1), padding=(1, 1), bias=False)
        (bn1): BatchNormAct2d(
          320, eps=0.001, momentum=0.1, affine=True, track_running_stats=True
          (drop): Identity()
          (act): SiLU(inplace=True)
        )
        (aa): Identity()
        (se): Identity()
        (conv_pwl): Conv2d(320, 80, kernel_size=(1, 1), stride=(1, 1), bias=False)
        (bn2): BatchNormAct2d(
          80, eps=0.001, momentum=0.1, affine=True, track_running_stats=True
          (drop): Identity()
          (act): Identity()
        )
        (drop_path): Identity()
      )
      (3): EdgeResidual(
        (conv_exp): Conv2d(80, 320, kernel_size=(3, 3), stride=(1, 1), padding=(1, 1), bias=False)
        (bn1): BatchNormAct2d(
          320, eps=0.001, momentum=0.1, affine=True, track_running_stats=True
          (drop): Identity()
          (act): SiLU(inplace=True)
        )
        (aa): Identity()
        (se): Identity()
        (conv_pwl): Conv2d(320, 80, kernel_size=(1, 1), stride=(1, 1), bias=False)
        (bn2): BatchNormAct2d(
          80, eps=0.001, momentum=0.1, affine=True, track_running_stats=True
          (drop): Identity()
          (act): Identity()
        )
        (drop_path): Identity()
      )
      (4): EdgeResidual(
        (conv_exp): Conv2d(80, 320, kernel_size=(3, 3), stride=(1, 1), padding=(1, 1), bias=False)
        (bn1): BatchNormAct2d(
          320, eps=0.001, momentum=0.1, affine=True, track_running_stats=True
          (drop): Identity()
          (act): SiLU(inplace=True)
        )
        (aa): Identity()
        (se): Identity()
        (conv_pwl): Conv2d(320, 80, kernel_size=(1, 1), stride=(1, 1), bias=False)
        (bn2): BatchNormAct2d(
          80, eps=0.001, momentum=0.1, affine=True, track_running_stats=True
          (drop): Identity()
          (act): Identity()
        )
        (drop_path): Identity()
      )
    )
    (3): Sequential(
      (0): InvertedResidual(
        (conv_pw): Conv2d(80, 320, kernel_size=(1, 1), stride=(1, 1), bias=False)
        (bn1): BatchNormAct2d(
          320, eps=0.001, momentum=0.1, affine=True, track_running_stats=True
          (drop): Identity()
          (act): SiLU(inplace=True)
        )
        (conv_dw): Conv2dSame(320, 320, kernel_size=(3, 3), stride=(2, 2), groups=320, bias=False)
        (bn2): BatchNormAct2d(
          320, eps=0.001, momentum=0.1, affine=True, track_running_stats=True
          (drop): Identity()
          (act): SiLU(inplace=True)
        )
        (aa): Identity()
        (se): SqueezeExcite(
          (conv_reduce): Conv2d(320, 20, kernel_size=(1, 1), stride=(1, 1))
          (act1): SiLU(inplace=True)
          (conv_expand): Conv2d(20, 320, kernel_size=(1, 1), stride=(1, 1))
          (gate): Sigmoid()
        )
        (conv_pwl): Conv2d(320, 160, kernel_size=(1, 1), stride=(1, 1), bias=False)
        (bn3): BatchNormAct2d(
          160, eps=0.001, momentum=0.1, affine=True, track_running_stats=True
          (drop): Identity()
          (act): Identity()
        )
        (drop_path): Identity()
      )
      (1): InvertedResidual(
        (conv_pw): Conv2d(160, 640, kernel_size=(1, 1), stride=(1, 1), bias=False)
        (bn1): BatchNormAct2d(
          640, eps=0.001, momentum=0.1, affine=True, track_running_stats=True
          (drop): Identity()
          (act): SiLU(inplace=True)
        )
        (conv_dw): Conv2d(640, 640, kernel_size=(3, 3), stride=(1, 1), padding=(1, 1), groups=640, bias=False)
        (bn2): BatchNormAct2d(
          640, eps=0.001, momentum=0.1, affine=True, track_running_stats=True
          (drop): Identity()
          (act): SiLU(inplace=True)
        )
        (aa): Identity()
        (se): SqueezeExcite(
          (conv_reduce): Conv2d(640, 40, kernel_size=(1, 1), stride=(1, 1))
          (act1): SiLU(inplace=True)
          (conv_expand): Conv2d(40, 640, kernel_size=(1, 1), stride=(1, 1))
          (gate): Sigmoid()
        )
        (conv_pwl): Conv2d(640, 160, kernel_size=(1, 1), stride=(1, 1), bias=False)
        (bn3): BatchNormAct2d(
          160, eps=0.001, momentum=0.1, affine=True, track_running_stats=True
          (drop): Identity()
          (act): Identity()
        )
        (drop_path): Identity()
      )
      (2): InvertedResidual(
        (conv_pw): Conv2d(160, 640, kernel_size=(1, 1), stride=(1, 1), bias=False)
        (bn1): BatchNormAct2d(
          640, eps=0.001, momentum=0.1, affine=True, track_running_stats=True
          (drop): Identity()
          (act): SiLU(inplace=True)
        )
        (conv_dw): Conv2d(640, 640, kernel_size=(3, 3), stride=(1, 1), padding=(1, 1), groups=640, bias=False)
        (bn2): BatchNormAct2d(
          640, eps=0.001, momentum=0.1, affine=True, track_running_stats=True
          (drop): Identity()
          (act): SiLU(inplace=True)
        )
        (aa): Identity()
        (se): SqueezeExcite(
          (conv_reduce): Conv2d(640, 40, kernel_size=(1, 1), stride=(1, 1))
          (act1): SiLU(inplace=True)
          (conv_expand): Conv2d(40, 640, kernel_size=(1, 1), stride=(1, 1))
          (gate): Sigmoid()
        )
        (conv_pwl): Conv2d(640, 160, kernel_size=(1, 1), stride=(1, 1), bias=False)
        (bn3): BatchNormAct2d(
          160, eps=0.001, momentum=0.1, affine=True, track_running_stats=True
          (drop): Identity()
          (act): Identity()
        )
        (drop_path): Identity()
      )
      (3): InvertedResidual(
        (conv_pw): Conv2d(160, 640, kernel_size=(1, 1), stride=(1, 1), bias=False)
        (bn1): BatchNormAct2d(
          640, eps=0.001, momentum=0.1, affine=True, track_running_stats=True
          (drop): Identity()
          (act): SiLU(inplace=True)
        )
        (conv_dw): Conv2d(640, 640, kernel_size=(3, 3), stride=(1, 1), padding=(1, 1), groups=640, bias=False)
        (bn2): BatchNormAct2d(
          640, eps=0.001, momentum=0.1, affine=True, track_running_stats=True
          (drop): Identity()
          (act): SiLU(inplace=True)
        )
        (aa): Identity()
        (se): SqueezeExcite(
          (conv_reduce): Conv2d(640, 40, kernel_size=(1, 1), stride=(1, 1))
          (act1): SiLU(inplace=True)
          (conv_expand): Conv2d(40, 640, kernel_size=(1, 1), stride=(1, 1))
          (gate): Sigmoid()
        )
        (conv_pwl): Conv2d(640, 160, kernel_size=(1, 1), stride=(1, 1), bias=False)
        (bn3): BatchNormAct2d(
          160, eps=0.001, momentum=0.1, affine=True, track_running_stats=True
          (drop): Identity()
          (act): Identity()
        )
        (drop_path): Identity()
      )
      (4): InvertedResidual(
        (conv_pw): Conv2d(160, 640, kernel_size=(1, 1), stride=(1, 1), bias=False)
        (bn1): BatchNormAct2d(
          640, eps=0.001, momentum=0.1, affine=True, track_running_stats=True
          (drop): Identity()
          (act): SiLU(inplace=True)
        )
        (conv_dw): Conv2d(640, 640, kernel_size=(3, 3), stride=(1, 1), padding=(1, 1), groups=640, bias=False)
        (bn2): BatchNormAct2d(
          640, eps=0.001, momentum=0.1, affine=True, track_running_stats=True
          (drop): Identity()
          (act): SiLU(inplace=True)
        )
        (aa): Identity()
        (se): SqueezeExcite(
          (conv_reduce): Conv2d(640, 40, kernel_size=(1, 1), stride=(1, 1))
          (act1): SiLU(inplace=True)
          (conv_expand): Conv2d(40, 640, kernel_size=(1, 1), stride=(1, 1))
          (gate): Sigmoid()
        )
        (conv_pwl): Conv2d(640, 160, kernel_size=(1, 1), stride=(1, 1), bias=False)
        (bn3): BatchNormAct2d(
          160, eps=0.001, momentum=0.1, affine=True, track_running_stats=True
          (drop): Identity()
          (act): Identity()
        )
        (drop_path): Identity()
      )
      (5): InvertedResidual(
        (conv_pw): Conv2d(160, 640, kernel_size=(1, 1), stride=(1, 1), bias=False)
        (bn1): BatchNormAct2d(
          640, eps=0.001, momentum=0.1, affine=True, track_running_stats=True
          (drop): Identity()
          (act): SiLU(inplace=True)
        )
        (conv_dw): Conv2d(640, 640, kernel_size=(3, 3), stride=(1, 1), padding=(1, 1), groups=640, bias=False)
        (bn2): BatchNormAct2d(
          640, eps=0.001, momentum=0.1, affine=True, track_running_stats=True
          (drop): Identity()
          (act): SiLU(inplace=True)
        )
        (aa): Identity()
        (se): SqueezeExcite(
          (conv_reduce): Conv2d(640, 40, kernel_size=(1, 1), stride=(1, 1))
          (act1): SiLU(inplace=True)
          (conv_expand): Conv2d(40, 640, kernel_size=(1, 1), stride=(1, 1))
          (gate): Sigmoid()
        )
        (conv_pwl): Conv2d(640, 160, kernel_size=(1, 1), stride=(1, 1), bias=False)
        (bn3): BatchNormAct2d(
          160, eps=0.001, momentum=0.1, affine=True, track_running_stats=True
          (drop): Identity()
          (act): Identity()
        )
        (drop_path): Identity()
      )
      (6): InvertedResidual(
        (conv_pw): Conv2d(160, 640, kernel_size=(1, 1), stride=(1, 1), bias=False)
        (bn1): BatchNormAct2d(
          640, eps=0.001, momentum=0.1, affine=True, track_running_stats=True
          (drop): Identity()
          (act): SiLU(inplace=True)
        )
        (conv_dw): Conv2d(640, 640, kernel_size=(3, 3), stride=(1, 1), padding=(1, 1), groups=640, bias=False)
        (bn2): BatchNormAct2d(
          640, eps=0.001, momentum=0.1, affine=True, track_running_stats=True
          (drop): Identity()
          (act): SiLU(inplace=True)
        )
        (aa): Identity()
        (se): SqueezeExcite(
          (conv_reduce): Conv2d(640, 40, kernel_size=(1, 1), stride=(1, 1))
          (act1): SiLU(inplace=True)
          (conv_expand): Conv2d(40, 640, kernel_size=(1, 1), stride=(1, 1))
          (gate): Sigmoid()
        )
        (conv_pwl): Conv2d(640, 160, kernel_size=(1, 1), stride=(1, 1), bias=False)
        (bn3): BatchNormAct2d(
          160, eps=0.001, momentum=0.1, affine=True, track_running_stats=True
          (drop): Identity()
          (act): Identity()
        )
        (drop_path): Identity()
      )
    )
    (4): Sequential(
      (0): InvertedResidual(
        (conv_pw): Conv2d(160, 960, kernel_size=(1, 1), stride=(1, 1), bias=False)
        (bn1): BatchNormAct2d(
          960, eps=0.001, momentum=0.1, affine=True, track_running_stats=True
          (drop): Identity()
          (act): SiLU(inplace=True)
        )
        (conv_dw): Conv2d(960, 960, kernel_size=(3, 3), stride=(1, 1), padding=(1, 1), groups=960, bias=False)
        (bn2): BatchNormAct2d(
          960, eps=0.001, momentum=0.1, affine=True, track_running_stats=True
          (drop): Identity()
          (act): SiLU(inplace=True)
        )
        (aa): Identity()
        (se): SqueezeExcite(
          (conv_reduce): Conv2d(960, 40, kernel_size=(1, 1), stride=(1, 1))
          (act1): SiLU(inplace=True)
          (conv_expand): Conv2d(40, 960, kernel_size=(1, 1), stride=(1, 1))
          (gate): Sigmoid()
        )
        (conv_pwl): Conv2d(960, 176, kernel_size=(1, 1), stride=(1, 1), bias=False)
        (bn3): BatchNormAct2d(
          176, eps=0.001, momentum=0.1, affine=True, track_running_stats=True
          (drop): Identity()
          (act): Identity()
        )
        (drop_path): Identity()
      )
      (1): InvertedResidual(
        (conv_pw): Conv2d(176, 1056, kernel_size=(1, 1), stride=(1, 1), bias=False)
        (bn1): BatchNormAct2d(
          1056, eps=0.001, momentum=0.1, affine=True, track_running_stats=True
          (drop): Identity()
          (act): SiLU(inplace=True)
        )
        (conv_dw): Conv2d(1056, 1056, kernel_size=(3, 3), stride=(1, 1), padding=(1, 1), groups=1056, bias=False)
        (bn2): BatchNormAct2d(
          1056, eps=0.001, momentum=0.1, affine=True, track_running_stats=True
          (drop): Identity()
          (act): SiLU(inplace=True)
        )
        (aa): Identity()
        (se): SqueezeExcite(
          (conv_reduce): Conv2d(1056, 44, kernel_size=(1, 1), stride=(1, 1))
          (act1): SiLU(inplace=True)
          (conv_expand): Conv2d(44, 1056, kernel_size=(1, 1), stride=(1, 1))
          (gate): Sigmoid()
        )
        (conv_pwl): Conv2d(1056, 176, kernel_size=(1, 1), stride=(1, 1), bias=False)
        (bn3): BatchNormAct2d(
          176, eps=0.001, momentum=0.1, affine=True, track_running_stats=True
          (drop): Identity()
          (act): Identity()
        )
        (drop_path): Identity()
      )
      (2): InvertedResidual(
        (conv_pw): Conv2d(176, 1056, kernel_size=(1, 1), stride=(1, 1), bias=False)
        (bn1): BatchNormAct2d(
          1056, eps=0.001, momentum=0.1, affine=True, track_running_stats=True
          (drop): Identity()
          (act): SiLU(inplace=True)
        )
        (conv_dw): Conv2d(1056, 1056, kernel_size=(3, 3), stride=(1, 1), padding=(1, 1), groups=1056, bias=False)
        (bn2): BatchNormAct2d(
          1056, eps=0.001, momentum=0.1, affine=True, track_running_stats=True
          (drop): Identity()
          (act): SiLU(inplace=True)
        )
        (aa): Identity()
        (se): SqueezeExcite(
          (conv_reduce): Conv2d(1056, 44, kernel_size=(1, 1), stride=(1, 1))
          (act1): SiLU(inplace=True)
          (conv_expand): Conv2d(44, 1056, kernel_size=(1, 1), stride=(1, 1))
          (gate): Sigmoid()
        )
        (conv_pwl): Conv2d(1056, 176, kernel_size=(1, 1), stride=(1, 1), bias=False)
        (bn3): BatchNormAct2d(
          176, eps=0.001, momentum=0.1, affine=True, track_running_stats=True
          (drop): Identity()
          (act): Identity()
        )
        (drop_path): Identity()
      )
      (3): InvertedResidual(
        (conv_pw): Conv2d(176, 1056, kernel_size=(1, 1), stride=(1, 1), bias=False)
        (bn1): BatchNormAct2d(
          1056, eps=0.001, momentum=0.1, affine=True, track_running_stats=True
          (drop): Identity()
          (act): SiLU(inplace=True)
        )
        (conv_dw): Conv2d(1056, 1056, kernel_size=(3, 3), stride=(1, 1), padding=(1, 1), groups=1056, bias=False)
        (bn2): BatchNormAct2d(
          1056, eps=0.001, momentum=0.1, affine=True, track_running_stats=True
          (drop): Identity()
          (act): SiLU(inplace=True)
        )
        (aa): Identity()
        (se): SqueezeExcite(
          (conv_reduce): Conv2d(1056, 44, kernel_size=(1, 1), stride=(1, 1))
          (act1): SiLU(inplace=True)
          (conv_expand): Conv2d(44, 1056, kernel_size=(1, 1), stride=(1, 1))
          (gate): Sigmoid()
        )
        (conv_pwl): Conv2d(1056, 176, kernel_size=(1, 1), stride=(1, 1), bias=False)
        (bn3): BatchNormAct2d(
          176, eps=0.001, momentum=0.1, affine=True, track_running_stats=True
          (drop): Identity()
          (act): Identity()
        )
        (drop_path): Identity()
      )
      (4): InvertedResidual(
        (conv_pw): Conv2d(176, 1056, kernel_size=(1, 1), stride=(1, 1), bias=False)
        (bn1): BatchNormAct2d(
          1056, eps=0.001, momentum=0.1, affine=True, track_running_stats=True
          (drop): Identity()
          (act): SiLU(inplace=True)
        )
        (conv_dw): Conv2d(1056, 1056, kernel_size=(3, 3), stride=(1, 1), padding=(1, 1), groups=1056, bias=False)
        (bn2): BatchNormAct2d(
          1056, eps=0.001, momentum=0.1, affine=True, track_running_stats=True
          (drop): Identity()
          (act): SiLU(inplace=True)
        )
        (aa): Identity()
        (se): SqueezeExcite(
          (conv_reduce): Conv2d(1056, 44, kernel_size=(1, 1), stride=(1, 1))
          (act1): SiLU(inplace=True)
          (conv_expand): Conv2d(44, 1056, kernel_size=(1, 1), stride=(1, 1))
          (gate): Sigmoid()
        )
        (conv_pwl): Conv2d(1056, 176, kernel_size=(1, 1), stride=(1, 1), bias=False)
        (bn3): BatchNormAct2d(
          176, eps=0.001, momentum=0.1, affine=True, track_running_stats=True
          (drop): Identity()
          (act): Identity()
        )
        (drop_path): Identity()
      )
      (5): InvertedResidual(
        (conv_pw): Conv2d(176, 1056, kernel_size=(1, 1), stride=(1, 1), bias=False)
        (bn1): BatchNormAct2d(
          1056, eps=0.001, momentum=0.1, affine=True, track_running_stats=True
          (drop): Identity()
          (act): SiLU(inplace=True)
        )
        (conv_dw): Conv2d(1056, 1056, kernel_size=(3, 3), stride=(1, 1), padding=(1, 1), groups=1056, bias=False)
        (bn2): BatchNormAct2d(
          1056, eps=0.001, momentum=0.1, affine=True, track_running_stats=True
          (drop): Identity()
          (act): SiLU(inplace=True)
        )
        (aa): Identity()
        (se): SqueezeExcite(
          (conv_reduce): Conv2d(1056, 44, kernel_size=(1, 1), stride=(1, 1))
          (act1): SiLU(inplace=True)
          (conv_expand): Conv2d(44, 1056, kernel_size=(1, 1), stride=(1, 1))
          (gate): Sigmoid()
        )
        (conv_pwl): Conv2d(1056, 176, kernel_size=(1, 1), stride=(1, 1), bias=False)
        (bn3): BatchNormAct2d(
          176, eps=0.001, momentum=0.1, affine=True, track_running_stats=True
          (drop): Identity()
          (act): Identity()
        )
        (drop_path): Identity()
      )
      (6): InvertedResidual(
        (conv_pw): Conv2d(176, 1056, kernel_size=(1, 1), stride=(1, 1), bias=False)
        (bn1): BatchNormAct2d(
          1056, eps=0.001, momentum=0.1, affine=True, track_running_stats=True
          (drop): Identity()
          (act): SiLU(inplace=True)
        )
        (conv_dw): Conv2d(1056, 1056, kernel_size=(3, 3), stride=(1, 1), padding=(1, 1), groups=1056, bias=False)
        (bn2): BatchNormAct2d(
          1056, eps=0.001, momentum=0.1, affine=True, track_running_stats=True
          (drop): Identity()
          (act): SiLU(inplace=True)
        )
        (aa): Identity()
        (se): SqueezeExcite(
          (conv_reduce): Conv2d(1056, 44, kernel_size=(1, 1), stride=(1, 1))
          (act1): SiLU(inplace=True)
          (conv_expand): Conv2d(44, 1056, kernel_size=(1, 1), stride=(1, 1))
          (gate): Sigmoid()
        )
        (conv_pwl): Conv2d(1056, 176, kernel_size=(1, 1), stride=(1, 1), bias=False)
        (bn3): BatchNormAct2d(
          176, eps=0.001, momentum=0.1, affine=True, track_running_stats=True
          (drop): Identity()
          (act): Identity()
        )
        (drop_path): Identity()
      )
      (7): InvertedResidual(
        (conv_pw): Conv2d(176, 1056, kernel_size=(1, 1), stride=(1, 1), bias=False)
        (bn1): BatchNormAct2d(
          1056, eps=0.001, momentum=0.1, affine=True, track_running_stats=True
          (drop): Identity()
          (act): SiLU(inplace=True)
        )
        (conv_dw): Conv2d(1056, 1056, kernel_size=(3, 3), stride=(1, 1), padding=(1, 1), groups=1056, bias=False)
        (bn2): BatchNormAct2d(
          1056, eps=0.001, momentum=0.1, affine=True, track_running_stats=True
          (drop): Identity()
          (act): SiLU(inplace=True)
        )
        (aa): Identity()
        (se): SqueezeExcite(
          (conv_reduce): Conv2d(1056, 44, kernel_size=(1, 1), stride=(1, 1))
          (act1): SiLU(inplace=True)
          (conv_expand): Conv2d(44, 1056, kernel_size=(1, 1), stride=(1, 1))
          (gate): Sigmoid()
        )
        (conv_pwl): Conv2d(1056, 176, kernel_size=(1, 1), stride=(1, 1), bias=False)
        (bn3): BatchNormAct2d(
          176, eps=0.001, momentum=0.1, affine=True, track_running_stats=True
          (drop): Identity()
          (act): Identity()
        )
        (drop_path): Identity()
      )
      (8): InvertedResidual(
        (conv_pw): Conv2d(176, 1056, kernel_size=(1, 1), stride=(1, 1), bias=False)
        (bn1): BatchNormAct2d(
          1056, eps=0.001, momentum=0.1, affine=True, track_running_stats=True
          (drop): Identity()
          (act): SiLU(inplace=True)
        )
        (conv_dw): Conv2d(1056, 1056, kernel_size=(3, 3), stride=(1, 1), padding=(1, 1), groups=1056, bias=False)
        (bn2): BatchNormAct2d(
          1056, eps=0.001, momentum=0.1, affine=True, track_running_stats=True
          (drop): Identity()
          (act): SiLU(inplace=True)
        )
        (aa): Identity()
        (se): SqueezeExcite(
          (conv_reduce): Conv2d(1056, 44, kernel_size=(1, 1), stride=(1, 1))
          (act1): SiLU(inplace=True)
          (conv_expand): Conv2d(44, 1056, kernel_size=(1, 1), stride=(1, 1))
          (gate): Sigmoid()
        )
        (conv_pwl): Conv2d(1056, 176, kernel_size=(1, 1), stride=(1, 1), bias=False)
        (bn3): BatchNormAct2d(
          176, eps=0.001, momentum=0.1, affine=True, track_running_stats=True
          (drop): Identity()
          (act): Identity()
        )
        (drop_path): Identity()
      )
      (9): InvertedResidual(
        (conv_pw): Conv2d(176, 1056, kernel_size=(1, 1), stride=(1, 1), bias=False)
        (bn1): BatchNormAct2d(
          1056, eps=0.001, momentum=0.1, affine=True, track_running_stats=True
          (drop): Identity()
          (act): SiLU(inplace=True)
        )
        (conv_dw): Conv2d(1056, 1056, kernel_size=(3, 3), stride=(1, 1), padding=(1, 1), groups=1056, bias=False)
        (bn2): BatchNormAct2d(
          1056, eps=0.001, momentum=0.1, affine=True, track_running_stats=True
          (drop): Identity()
          (act): SiLU(inplace=True)
        )
        (aa): Identity()
        (se): SqueezeExcite(
          (conv_reduce): Conv2d(1056, 44, kernel_size=(1, 1), stride=(1, 1))
          (act1): SiLU(inplace=True)
          (conv_expand): Conv2d(44, 1056, kernel_size=(1, 1), stride=(1, 1))
          (gate): Sigmoid()
        )
        (conv_pwl): Conv2d(1056, 176, kernel_size=(1, 1), stride=(1, 1), bias=False)
        (bn3): BatchNormAct2d(
          176, eps=0.001, momentum=0.1, affine=True, track_running_stats=True
          (drop): Identity()
          (act): Identity()
        )
        (drop_path): Identity()
      )
      (10): InvertedResidual(
        (conv_pw): Conv2d(176, 1056, kernel_size=(1, 1), stride=(1, 1), bias=False)
        (bn1): BatchNormAct2d(
          1056, eps=0.001, momentum=0.1, affine=True, track_running_stats=True
          (drop): Identity()
          (act): SiLU(inplace=True)
        )
        (conv_dw): Conv2d(1056, 1056, kernel_size=(3, 3), stride=(1, 1), padding=(1, 1), groups=1056, bias=False)
        (bn2): BatchNormAct2d(
          1056, eps=0.001, momentum=0.1, affine=True, track_running_stats=True
          (drop): Identity()
          (act): SiLU(inplace=True)
        )
        (aa): Identity()
        (se): SqueezeExcite(
          (conv_reduce): Conv2d(1056, 44, kernel_size=(1, 1), stride=(1, 1))
          (act1): SiLU(inplace=True)
          (conv_expand): Conv2d(44, 1056, kernel_size=(1, 1), stride=(1, 1))
          (gate): Sigmoid()
        )
        (conv_pwl): Conv2d(1056, 176, kernel_size=(1, 1), stride=(1, 1), bias=False)
        (bn3): BatchNormAct2d(
          176, eps=0.001, momentum=0.1, affine=True, track_running_stats=True
          (drop): Identity()
          (act): Identity()
        )
        (drop_path): Identity()
      )
      (11): InvertedResidual(
        (conv_pw): Conv2d(176, 1056, kernel_size=(1, 1), stride=(1, 1), bias=False)
        (bn1): BatchNormAct2d(
          1056, eps=0.001, momentum=0.1, affine=True, track_running_stats=True
          (drop): Identity()
          (act): SiLU(inplace=True)
        )
        (conv_dw): Conv2d(1056, 1056, kernel_size=(3, 3), stride=(1, 1), padding=(1, 1), groups=1056, bias=False)
        (bn2): BatchNormAct2d(
          1056, eps=0.001, momentum=0.1, affine=True, track_running_stats=True
          (drop): Identity()
          (act): SiLU(inplace=True)
        )
        (aa): Identity()
        (se): SqueezeExcite(
          (conv_reduce): Conv2d(1056, 44, kernel_size=(1, 1), stride=(1, 1))
          (act1): SiLU(inplace=True)
          (conv_expand): Conv2d(44, 1056, kernel_size=(1, 1), stride=(1, 1))
          (gate): Sigmoid()
        )
        (conv_pwl): Conv2d(1056, 176, kernel_size=(1, 1), stride=(1, 1), bias=False)
        (bn3): BatchNormAct2d(
          176, eps=0.001, momentum=0.1, affine=True, track_running_stats=True
          (drop): Identity()
          (act): Identity()
        )
        (drop_path): Identity()
      )
      (12): InvertedResidual(
        (conv_pw): Conv2d(176, 1056, kernel_size=(1, 1), stride=(1, 1), bias=False)
        (bn1): BatchNormAct2d(
          1056, eps=0.001, momentum=0.1, affine=True, track_running_stats=True
          (drop): Identity()
          (act): SiLU(inplace=True)
        )
        (conv_dw): Conv2d(1056, 1056, kernel_size=(3, 3), stride=(1, 1), padding=(1, 1), groups=1056, bias=False)
        (bn2): BatchNormAct2d(
          1056, eps=0.001, momentum=0.1, affine=True, track_running_stats=True
          (drop): Identity()
          (act): SiLU(inplace=True)
        )
        (aa): Identity()
        (se): SqueezeExcite(
          (conv_reduce): Conv2d(1056, 44, kernel_size=(1, 1), stride=(1, 1))
          (act1): SiLU(inplace=True)
          (conv_expand): Conv2d(44, 1056, kernel_size=(1, 1), stride=(1, 1))
          (gate): Sigmoid()
        )
        (conv_pwl): Conv2d(1056, 176, kernel_size=(1, 1), stride=(1, 1), bias=False)
        (bn3): BatchNormAct2d(
          176, eps=0.001, momentum=0.1, affine=True, track_running_stats=True
          (drop): Identity()
          (act): Identity()
        )
        (drop_path): Identity()
      )
      (13): InvertedResidual(
        (conv_pw): Conv2d(176, 1056, kernel_size=(1, 1), stride=(1, 1), bias=False)
        (bn1): BatchNormAct2d(
          1056, eps=0.001, momentum=0.1, affine=True, track_running_stats=True
          (drop): Identity()
          (act): SiLU(inplace=True)
        )
        (conv_dw): Conv2d(1056, 1056, kernel_size=(3, 3), stride=(1, 1), padding=(1, 1), groups=1056, bias=False)
        (bn2): BatchNormAct2d(
          1056, eps=0.001, momentum=0.1, affine=True, track_running_stats=True
          (drop): Identity()
          (act): SiLU(inplace=True)
        )
        (aa): Identity()
        (se): SqueezeExcite(
          (conv_reduce): Conv2d(1056, 44, kernel_size=(1, 1), stride=(1, 1))
          (act1): SiLU(inplace=True)
          (conv_expand): Conv2d(44, 1056, kernel_size=(1, 1), stride=(1, 1))
          (gate): Sigmoid()
        )
        (conv_pwl): Conv2d(1056, 176, kernel_size=(1, 1), stride=(1, 1), bias=False)
        (bn3): BatchNormAct2d(
          176, eps=0.001, momentum=0.1, affine=True, track_running_stats=True
          (drop): Identity()
          (act): Identity()
        )
        (drop_path): Identity()
      )
    )
    (5): Sequential(
      (0): InvertedResidual(
        (conv_pw): Conv2d(176, 1056, kernel_size=(1, 1), stride=(1, 1), bias=False)
        (bn1): BatchNormAct2d(
          1056, eps=0.001, momentum=0.1, affine=True, track_running_stats=True
          (drop): Identity()
          (act): SiLU(inplace=True)
        )
        (conv_dw): Conv2dSame(1056, 1056, kernel_size=(3, 3), stride=(2, 2), groups=1056, bias=False)
        (bn2): BatchNormAct2d(
          1056, eps=0.001, momentum=0.1, affine=True, track_running_stats=True
          (drop): Identity()
          (act): SiLU(inplace=True)
        )
        (aa): Identity()
        (se): SqueezeExcite(
          (conv_reduce): Conv2d(1056, 44, kernel_size=(1, 1), stride=(1, 1))
          (act1): SiLU(inplace=True)
          (conv_expand): Conv2d(44, 1056, kernel_size=(1, 1), stride=(1, 1))
          (gate): Sigmoid()
        )
        (conv_pwl): Conv2d(1056, 304, kernel_size=(1, 1), stride=(1, 1), bias=False)
        (bn3): BatchNormAct2d(
          304, eps=0.001, momentum=0.1, affine=True, track_running_stats=True
          (drop): Identity()
          (act): Identity()
        )
        (drop_path): Identity()
      )
      (1): InvertedResidual(
        (conv_pw): Conv2d(304, 1824, kernel_size=(1, 1), stride=(1, 1), bias=False)
        (bn1): BatchNormAct2d(
          1824, eps=0.001, momentum=0.1, affine=True, track_running_stats=True
          (drop): Identity()
          (act): SiLU(inplace=True)
        )
        (conv_dw): Conv2d(1824, 1824, kernel_size=(3, 3), stride=(1, 1), padding=(1, 1), groups=1824, bias=False)
        (bn2): BatchNormAct2d(
          1824, eps=0.001, momentum=0.1, affine=True, track_running_stats=True
          (drop): Identity()
          (act): SiLU(inplace=True)
        )
        (aa): Identity()
        (se): SqueezeExcite(
          (conv_reduce): Conv2d(1824, 76, kernel_size=(1, 1), stride=(1, 1))
          (act1): SiLU(inplace=True)
          (conv_expand): Conv2d(76, 1824, kernel_size=(1, 1), stride=(1, 1))
          (gate): Sigmoid()
        )
        (conv_pwl): Conv2d(1824, 304, kernel_size=(1, 1), stride=(1, 1), bias=False)
        (bn3): BatchNormAct2d(
          304, eps=0.001, momentum=0.1, affine=True, track_running_stats=True
          (drop): Identity()
          (act): Identity()
        )
        (drop_path): Identity()
      )
      (2): InvertedResidual(
        (conv_pw): Conv2d(304, 1824, kernel_size=(1, 1), stride=(1, 1), bias=False)
        (bn1): BatchNormAct2d(
          1824, eps=0.001, momentum=0.1, affine=True, track_running_stats=True
          (drop): Identity()
          (act): SiLU(inplace=True)
        )
        (conv_dw): Conv2d(1824, 1824, kernel_size=(3, 3), stride=(1, 1), padding=(1, 1), groups=1824, bias=False)
        (bn2): BatchNormAct2d(
          1824, eps=0.001, momentum=0.1, affine=True, track_running_stats=True
          (drop): Identity()
          (act): SiLU(inplace=True)
        )
        (aa): Identity()
        (se): SqueezeExcite(
          (conv_reduce): Conv2d(1824, 76, kernel_size=(1, 1), stride=(1, 1))
          (act1): SiLU(inplace=True)
          (conv_expand): Conv2d(76, 1824, kernel_size=(1, 1), stride=(1, 1))
          (gate): Sigmoid()
        )
        (conv_pwl): Conv2d(1824, 304, kernel_size=(1, 1), stride=(1, 1), bias=False)
        (bn3): BatchNormAct2d(
          304, eps=0.001, momentum=0.1, affine=True, track_running_stats=True
          (drop): Identity()
          (act): Identity()
        )
        (drop_path): Identity()
      )
      (3): InvertedResidual(
        (conv_pw): Conv2d(304, 1824, kernel_size=(1, 1), stride=(1, 1), bias=False)
        (bn1): BatchNormAct2d(
          1824, eps=0.001, momentum=0.1, affine=True, track_running_stats=True
          (drop): Identity()
          (act): SiLU(inplace=True)
        )
        (conv_dw): Conv2d(1824, 1824, kernel_size=(3, 3), stride=(1, 1), padding=(1, 1), groups=1824, bias=False)
        (bn2): BatchNormAct2d(
          1824, eps=0.001, momentum=0.1, affine=True, track_running_stats=True
          (drop): Identity()
          (act): SiLU(inplace=True)
        )
        (aa): Identity()
        (se): SqueezeExcite(
          (conv_reduce): Conv2d(1824, 76, kernel_size=(1, 1), stride=(1, 1))
          (act1): SiLU(inplace=True)
          (conv_expand): Conv2d(76, 1824, kernel_size=(1, 1), stride=(1, 1))
          (gate): Sigmoid()
        )
        (conv_pwl): Conv2d(1824, 304, kernel_size=(1, 1), stride=(1, 1), bias=False)
        (bn3): BatchNormAct2d(
          304, eps=0.001, momentum=0.1, affine=True, track_running_stats=True
          (drop): Identity()
          (act): Identity()
        )
        (drop_path): Identity()
      )
      (4): InvertedResidual(
        (conv_pw): Conv2d(304, 1824, kernel_size=(1, 1), stride=(1, 1), bias=False)
        (bn1): BatchNormAct2d(
          1824, eps=0.001, momentum=0.1, affine=True, track_running_stats=True
          (drop): Identity()
          (act): SiLU(inplace=True)
        )
        (conv_dw): Conv2d(1824, 1824, kernel_size=(3, 3), stride=(1, 1), padding=(1, 1), groups=1824, bias=False)
        (bn2): BatchNormAct2d(
          1824, eps=0.001, momentum=0.1, affine=True, track_running_stats=True
          (drop): Identity()
          (act): SiLU(inplace=True)
        )
        (aa): Identity()
        (se): SqueezeExcite(
          (conv_reduce): Conv2d(1824, 76, kernel_size=(1, 1), stride=(1, 1))
          (act1): SiLU(inplace=True)
          (conv_expand): Conv2d(76, 1824, kernel_size=(1, 1), stride=(1, 1))
          (gate): Sigmoid()
        )
        (conv_pwl): Conv2d(1824, 304, kernel_size=(1, 1), stride=(1, 1), bias=False)
        (bn3): BatchNormAct2d(
          304, eps=0.001, momentum=0.1, affine=True, track_running_stats=True
          (drop): Identity()
          (act): Identity()
        )
        (drop_path): Identity()
      )
      (5): InvertedResidual(
        (conv_pw): Conv2d(304, 1824, kernel_size=(1, 1), stride=(1, 1), bias=False)
        (bn1): BatchNormAct2d(
          1824, eps=0.001, momentum=0.1, affine=True, track_running_stats=True
          (drop): Identity()
          (act): SiLU(inplace=True)
        )
        (conv_dw): Conv2d(1824, 1824, kernel_size=(3, 3), stride=(1, 1), padding=(1, 1), groups=1824, bias=False)
        (bn2): BatchNormAct2d(
          1824, eps=0.001, momentum=0.1, affine=True, track_running_stats=True
          (drop): Identity()
          (act): SiLU(inplace=True)
        )
        (aa): Identity()
        (se): SqueezeExcite(
          (conv_reduce): Conv2d(1824, 76, kernel_size=(1, 1), stride=(1, 1))
          (act1): SiLU(inplace=True)
          (conv_expand): Conv2d(76, 1824, kernel_size=(1, 1), stride=(1, 1))
          (gate): Sigmoid()
        )
        (conv_pwl): Conv2d(1824, 304, kernel_size=(1, 1), stride=(1, 1), bias=False)
        (bn3): BatchNormAct2d(
          304, eps=0.001, momentum=0.1, affine=True, track_running_stats=True
          (drop): Identity()
          (act): Identity()
        )
        (drop_path): Identity()
      )
      (6): InvertedResidual(
        (conv_pw): Conv2d(304, 1824, kernel_size=(1, 1), stride=(1, 1), bias=False)
        (bn1): BatchNormAct2d(
          1824, eps=0.001, momentum=0.1, affine=True, track_running_stats=True
          (drop): Identity()
          (act): SiLU(inplace=True)
        )
        (conv_dw): Conv2d(1824, 1824, kernel_size=(3, 3), stride=(1, 1), padding=(1, 1), groups=1824, bias=False)
        (bn2): BatchNormAct2d(
          1824, eps=0.001, momentum=0.1, affine=True, track_running_stats=True
          (drop): Identity()
          (act): SiLU(inplace=True)
        )
        (aa): Identity()
        (se): SqueezeExcite(
          (conv_reduce): Conv2d(1824, 76, kernel_size=(1, 1), stride=(1, 1))
          (act1): SiLU(inplace=True)
          (conv_expand): Conv2d(76, 1824, kernel_size=(1, 1), stride=(1, 1))
          (gate): Sigmoid()
        )
        (conv_pwl): Conv2d(1824, 304, kernel_size=(1, 1), stride=(1, 1), bias=False)
        (bn3): BatchNormAct2d(
          304, eps=0.001, momentum=0.1, affine=True, track_running_stats=True
          (drop): Identity()
          (act): Identity()
        )
        (drop_path): Identity()
      )
      (7): InvertedResidual(
        (conv_pw): Conv2d(304, 1824, kernel_size=(1, 1), stride=(1, 1), bias=False)
        (bn1): BatchNormAct2d(
          1824, eps=0.001, momentum=0.1, affine=True, track_running_stats=True
          (drop): Identity()
          (act): SiLU(inplace=True)
        )
        (conv_dw): Conv2d(1824, 1824, kernel_size=(3, 3), stride=(1, 1), padding=(1, 1), groups=1824, bias=False)
        (bn2): BatchNormAct2d(
          1824, eps=0.001, momentum=0.1, affine=True, track_running_stats=True
          (drop): Identity()
          (act): SiLU(inplace=True)
        )
        (aa): Identity()
        (se): SqueezeExcite(
          (conv_reduce): Conv2d(1824, 76, kernel_size=(1, 1), stride=(1, 1))
          (act1): SiLU(inplace=True)
          (conv_expand): Conv2d(76, 1824, kernel_size=(1, 1), stride=(1, 1))
          (gate): Sigmoid()
        )
        (conv_pwl): Conv2d(1824, 304, kernel_size=(1, 1), stride=(1, 1), bias=False)
        (bn3): BatchNormAct2d(
          304, eps=0.001, momentum=0.1, affine=True, track_running_stats=True
          (drop): Identity()
          (act): Identity()
        )
        (drop_path): Identity()
      )
      (8): InvertedResidual(
        (conv_pw): Conv2d(304, 1824, kernel_size=(1, 1), stride=(1, 1), bias=False)
        (bn1): BatchNormAct2d(
          1824, eps=0.001, momentum=0.1, affine=True, track_running_stats=True
          (drop): Identity()
          (act): SiLU(inplace=True)
        )
        (conv_dw): Conv2d(1824, 1824, kernel_size=(3, 3), stride=(1, 1), padding=(1, 1), groups=1824, bias=False)
        (bn2): BatchNormAct2d(
          1824, eps=0.001, momentum=0.1, affine=True, track_running_stats=True
          (drop): Identity()
          (act): SiLU(inplace=True)
        )
        (aa): Identity()
        (se): SqueezeExcite(
          (conv_reduce): Conv2d(1824, 76, kernel_size=(1, 1), stride=(1, 1))
          (act1): SiLU(inplace=True)
          (conv_expand): Conv2d(76, 1824, kernel_size=(1, 1), stride=(1, 1))
          (gate): Sigmoid()
        )
        (conv_pwl): Conv2d(1824, 304, kernel_size=(1, 1), stride=(1, 1), bias=False)
        (bn3): BatchNormAct2d(
          304, eps=0.001, momentum=0.1, affine=True, track_running_stats=True
          (drop): Identity()
          (act): Identity()
        )
        (drop_path): Identity()
      )
      (9): InvertedResidual(
        (conv_pw): Conv2d(304, 1824, kernel_size=(1, 1), stride=(1, 1), bias=False)
        (bn1): BatchNormAct2d(
          1824, eps=0.001, momentum=0.1, affine=True, track_running_stats=True
          (drop): Identity()
          (act): SiLU(inplace=True)
        )
        (conv_dw): Conv2d(1824, 1824, kernel_size=(3, 3), stride=(1, 1), padding=(1, 1), groups=1824, bias=False)
        (bn2): BatchNormAct2d(
          1824, eps=0.001, momentum=0.1, affine=True, track_running_stats=True
          (drop): Identity()
          (act): SiLU(inplace=True)
        )
        (aa): Identity()
        (se): SqueezeExcite(
          (conv_reduce): Conv2d(1824, 76, kernel_size=(1, 1), stride=(1, 1))
          (act1): SiLU(inplace=True)
          (conv_expand): Conv2d(76, 1824, kernel_size=(1, 1), stride=(1, 1))
          (gate): Sigmoid()
        )
        (conv_pwl): Conv2d(1824, 304, kernel_size=(1, 1), stride=(1, 1), bias=False)
        (bn3): BatchNormAct2d(
          304, eps=0.001, momentum=0.1, affine=True, track_running_stats=True
          (drop): Identity()
          (act): Identity()
        )
        (drop_path): Identity()
      )
      (10): InvertedResidual(
        (conv_pw): Conv2d(304, 1824, kernel_size=(1, 1), stride=(1, 1), bias=False)
        (bn1): BatchNormAct2d(
          1824, eps=0.001, momentum=0.1, affine=True, track_running_stats=True
          (drop): Identity()
          (act): SiLU(inplace=True)
        )
        (conv_dw): Conv2d(1824, 1824, kernel_size=(3, 3), stride=(1, 1), padding=(1, 1), groups=1824, bias=False)
        (bn2): BatchNormAct2d(
          1824, eps=0.001, momentum=0.1, affine=True, track_running_stats=True
          (drop): Identity()
          (act): SiLU(inplace=True)
        )
        (aa): Identity()
        (se): SqueezeExcite(
          (conv_reduce): Conv2d(1824, 76, kernel_size=(1, 1), stride=(1, 1))
          (act1): SiLU(inplace=True)
          (conv_expand): Conv2d(76, 1824, kernel_size=(1, 1), stride=(1, 1))
          (gate): Sigmoid()
        )
        (conv_pwl): Conv2d(1824, 304, kernel_size=(1, 1), stride=(1, 1), bias=False)
        (bn3): BatchNormAct2d(
          304, eps=0.001, momentum=0.1, affine=True, track_running_stats=True
          (drop): Identity()
          (act): Identity()
        )
        (drop_path): Identity()
      )
      (11): InvertedResidual(
        (conv_pw): Conv2d(304, 1824, kernel_size=(1, 1), stride=(1, 1), bias=False)
        (bn1): BatchNormAct2d(
          1824, eps=0.001, momentum=0.1, affine=True, track_running_stats=True
          (drop): Identity()
          (act): SiLU(inplace=True)
        )
        (conv_dw): Conv2d(1824, 1824, kernel_size=(3, 3), stride=(1, 1), padding=(1, 1), groups=1824, bias=False)
        (bn2): BatchNormAct2d(
          1824, eps=0.001, momentum=0.1, affine=True, track_running_stats=True
          (drop): Identity()
          (act): SiLU(inplace=True)
        )
        (aa): Identity()
        (se): SqueezeExcite(
          (conv_reduce): Conv2d(1824, 76, kernel_size=(1, 1), stride=(1, 1))
          (act1): SiLU(inplace=True)
          (conv_expand): Conv2d(76, 1824, kernel_size=(1, 1), stride=(1, 1))
          (gate): Sigmoid()
        )
        (conv_pwl): Conv2d(1824, 304, kernel_size=(1, 1), stride=(1, 1), bias=False)
        (bn3): BatchNormAct2d(
          304, eps=0.001, momentum=0.1, affine=True, track_running_stats=True
          (drop): Identity()
          (act): Identity()
        )
        (drop_path): Identity()
      )
      (12): InvertedResidual(
        (conv_pw): Conv2d(304, 1824, kernel_size=(1, 1), stride=(1, 1), bias=False)
        (bn1): BatchNormAct2d(
          1824, eps=0.001, momentum=0.1, affine=True, track_running_stats=True
          (drop): Identity()
          (act): SiLU(inplace=True)
        )
        (conv_dw): Conv2d(1824, 1824, kernel_size=(3, 3), stride=(1, 1), padding=(1, 1), groups=1824, bias=False)
        (bn2): BatchNormAct2d(
          1824, eps=0.001, momentum=0.1, affine=True, track_running_stats=True
          (drop): Identity()
          (act): SiLU(inplace=True)
        )
        (aa): Identity()
        (se): SqueezeExcite(
          (conv_reduce): Conv2d(1824, 76, kernel_size=(1, 1), stride=(1, 1))
          (act1): SiLU(inplace=True)
          (conv_expand): Conv2d(76, 1824, kernel_size=(1, 1), stride=(1, 1))
          (gate): Sigmoid()
        )
        (conv_pwl): Conv2d(1824, 304, kernel_size=(1, 1), stride=(1, 1), bias=False)
        (bn3): BatchNormAct2d(
          304, eps=0.001, momentum=0.1, affine=True, track_running_stats=True
          (drop): Identity()
          (act): Identity()
        )
        (drop_path): Identity()
      )
      (13): InvertedResidual(
        (conv_pw): Conv2d(304, 1824, kernel_size=(1, 1), stride=(1, 1), bias=False)
        (bn1): BatchNormAct2d(
          1824, eps=0.001, momentum=0.1, affine=True, track_running_stats=True
          (drop): Identity()
          (act): SiLU(inplace=True)
        )
        (conv_dw): Conv2d(1824, 1824, kernel_size=(3, 3), stride=(1, 1), padding=(1, 1), groups=1824, bias=False)
        (bn2): BatchNormAct2d(
          1824, eps=0.001, momentum=0.1, affine=True, track_running_stats=True
          (drop): Identity()
          (act): SiLU(inplace=True)
        )
        (aa): Identity()
        (se): SqueezeExcite(
          (conv_reduce): Conv2d(1824, 76, kernel_size=(1, 1), stride=(1, 1))
          (act1): SiLU(inplace=True)
          (conv_expand): Conv2d(76, 1824, kernel_size=(1, 1), stride=(1, 1))
          (gate): Sigmoid()
        )
        (conv_pwl): Conv2d(1824, 304, kernel_size=(1, 1), stride=(1, 1), bias=False)
        (bn3): BatchNormAct2d(
          304, eps=0.001, momentum=0.1, affine=True, track_running_stats=True
          (drop): Identity()
          (act): Identity()
        )
        (drop_path): Identity()
      )
      (14): InvertedResidual(
        (conv_pw): Conv2d(304, 1824, kernel_size=(1, 1), stride=(1, 1), bias=False)
        (bn1): BatchNormAct2d(
          1824, eps=0.001, momentum=0.1, affine=True, track_running_stats=True
          (drop): Identity()
          (act): SiLU(inplace=True)
        )
        (conv_dw): Conv2d(1824, 1824, kernel_size=(3, 3), stride=(1, 1), padding=(1, 1), groups=1824, bias=False)
        (bn2): BatchNormAct2d(
          1824, eps=0.001, momentum=0.1, affine=True, track_running_stats=True
          (drop): Identity()
          (act): SiLU(inplace=True)
        )
        (aa): Identity()
        (se): SqueezeExcite(
          (conv_reduce): Conv2d(1824, 76, kernel_size=(1, 1), stride=(1, 1))
          (act1): SiLU(inplace=True)
          (conv_expand): Conv2d(76, 1824, kernel_size=(1, 1), stride=(1, 1))
          (gate): Sigmoid()
        )
        (conv_pwl): Conv2d(1824, 304, kernel_size=(1, 1), stride=(1, 1), bias=False)
        (bn3): BatchNormAct2d(
          304, eps=0.001, momentum=0.1, affine=True, track_running_stats=True
          (drop): Identity()
          (act): Identity()
        )
        (drop_path): Identity()
      )
      (15): InvertedResidual(
        (conv_pw): Conv2d(304, 1824, kernel_size=(1, 1), stride=(1, 1), bias=False)
        (bn1): BatchNormAct2d(
          1824, eps=0.001, momentum=0.1, affine=True, track_running_stats=True
          (drop): Identity()
          (act): SiLU(inplace=True)
        )
        (conv_dw): Conv2d(1824, 1824, kernel_size=(3, 3), stride=(1, 1), padding=(1, 1), groups=1824, bias=False)
        (bn2): BatchNormAct2d(
          1824, eps=0.001, momentum=0.1, affine=True, track_running_stats=True
          (drop): Identity()
          (act): SiLU(inplace=True)
        )
        (aa): Identity()
        (se): SqueezeExcite(
          (conv_reduce): Conv2d(1824, 76, kernel_size=(1, 1), stride=(1, 1))
          (act1): SiLU(inplace=True)
          (conv_expand): Conv2d(76, 1824, kernel_size=(1, 1), stride=(1, 1))
          (gate): Sigmoid()
        )
        (conv_pwl): Conv2d(1824, 304, kernel_size=(1, 1), stride=(1, 1), bias=False)
        (bn3): BatchNormAct2d(
          304, eps=0.001, momentum=0.1, affine=True, track_running_stats=True
          (drop): Identity()
          (act): Identity()
        )
        (drop_path): Identity()
      )
      (16): InvertedResidual(
        (conv_pw): Conv2d(304, 1824, kernel_size=(1, 1), stride=(1, 1), bias=False)
        (bn1): BatchNormAct2d(
          1824, eps=0.001, momentum=0.1, affine=True, track_running_stats=True
          (drop): Identity()
          (act): SiLU(inplace=True)
        )
        (conv_dw): Conv2d(1824, 1824, kernel_size=(3, 3), stride=(1, 1), padding=(1, 1), groups=1824, bias=False)
        (bn2): BatchNormAct2d(
          1824, eps=0.001, momentum=0.1, affine=True, track_running_stats=True
          (drop): Identity()
          (act): SiLU(inplace=True)
        )
        (aa): Identity()
        (se): SqueezeExcite(
          (conv_reduce): Conv2d(1824, 76, kernel_size=(1, 1), stride=(1, 1))
          (act1): SiLU(inplace=True)
          (conv_expand): Conv2d(76, 1824, kernel_size=(1, 1), stride=(1, 1))
          (gate): Sigmoid()
        )
        (conv_pwl): Conv2d(1824, 304, kernel_size=(1, 1), stride=(1, 1), bias=False)
        (bn3): BatchNormAct2d(
          304, eps=0.001, momentum=0.1, affine=True, track_running_stats=True
          (drop): Identity()
          (act): Identity()
        )
        (drop_path): Identity()
      )
      (17): InvertedResidual(
        (conv_pw): Conv2d(304, 1824, kernel_size=(1, 1), stride=(1, 1), bias=False)
        (bn1): BatchNormAct2d(
          1824, eps=0.001, momentum=0.1, affine=True, track_running_stats=True
          (drop): Identity()
          (act): SiLU(inplace=True)
        )
        (conv_dw): Conv2d(1824, 1824, kernel_size=(3, 3), stride=(1, 1), padding=(1, 1), groups=1824, bias=False)
        (bn2): BatchNormAct2d(
          1824, eps=0.001, momentum=0.1, affine=True, track_running_stats=True
          (drop): Identity()
          (act): SiLU(inplace=True)
        )
        (aa): Identity()
        (se): SqueezeExcite(
          (conv_reduce): Conv2d(1824, 76, kernel_size=(1, 1), stride=(1, 1))
          (act1): SiLU(inplace=True)
          (conv_expand): Conv2d(76, 1824, kernel_size=(1, 1), stride=(1, 1))
          (gate): Sigmoid()
        )
        (conv_pwl): Conv2d(1824, 304, kernel_size=(1, 1), stride=(1, 1), bias=False)
        (bn3): BatchNormAct2d(
          304, eps=0.001, momentum=0.1, affine=True, track_running_stats=True
          (drop): Identity()
          (act): Identity()
        )
        (drop_path): Identity()
      )
    )
    (6): Sequential(
      (0): InvertedResidual(
        (conv_pw): Conv2d(304, 1824, kernel_size=(1, 1), stride=(1, 1), bias=False)
        (bn1): BatchNormAct2d(
          1824, eps=0.001, momentum=0.1, affine=True, track_running_stats=True
          (drop): Identity()
          (act): SiLU(inplace=True)
        )
        (conv_dw): Conv2d(1824, 1824, kernel_size=(3, 3), stride=(1, 1), padding=(1, 1), groups=1824, bias=False)
        (bn2): BatchNormAct2d(
          1824, eps=0.001, momentum=0.1, affine=True, track_running_stats=True
          (drop): Identity()
          (act): SiLU(inplace=True)
        )
        (aa): Identity()
        (se): SqueezeExcite(
          (conv_reduce): Conv2d(1824, 76, kernel_size=(1, 1), stride=(1, 1))
          (act1): SiLU(inplace=True)
          (conv_expand): Conv2d(76, 1824, kernel_size=(1, 1), stride=(1, 1))
          (gate): Sigmoid()
        )
        (conv_pwl): Conv2d(1824, 512, kernel_size=(1, 1), stride=(1, 1), bias=False)
        (bn3): BatchNormAct2d(
          512, eps=0.001, momentum=0.1, affine=True, track_running_stats=True
          (drop): Identity()
          (act): Identity()
        )
        (drop_path): Identity()
      )
      (1): InvertedResidual(
        (conv_pw): Conv2d(512, 3072, kernel_size=(1, 1), stride=(1, 1), bias=False)
        (bn1): BatchNormAct2d(
          3072, eps=0.001, momentum=0.1, affine=True, track_running_stats=True
          (drop): Identity()
          (act): SiLU(inplace=True)
        )
        (conv_dw): Conv2d(3072, 3072, kernel_size=(3, 3), stride=(1, 1), padding=(1, 1), groups=3072, bias=False)
        (bn2): BatchNormAct2d(
          3072, eps=0.001, momentum=0.1, affine=True, track_running_stats=True
          (drop): Identity()
          (act): SiLU(inplace=True)
        )
        (aa): Identity()
        (se): SqueezeExcite(
          (conv_reduce): Conv2d(3072, 128, kernel_size=(1, 1), stride=(1, 1))
          (act1): SiLU(inplace=True)
          (conv_expand): Conv2d(128, 3072, kernel_size=(1, 1), stride=(1, 1))
          (gate): Sigmoid()
        )
        (conv_pwl): Conv2d(3072, 512, kernel_size=(1, 1), stride=(1, 1), bias=False)
        (bn3): BatchNormAct2d(
          512, eps=0.001, momentum=0.1, affine=True, track_running_stats=True
          (drop): Identity()
          (act): Identity()
        )
        (drop_path): Identity()
      )
      (2): InvertedResidual(
        (conv_pw): Conv2d(512, 3072, kernel_size=(1, 1), stride=(1, 1), bias=False)
        (bn1): BatchNormAct2d(
          3072, eps=0.001, momentum=0.1, affine=True, track_running_stats=True
          (drop): Identity()
          (act): SiLU(inplace=True)
        )
        (conv_dw): Conv2d(3072, 3072, kernel_size=(3, 3), stride=(1, 1), padding=(1, 1), groups=3072, bias=False)
        (bn2): BatchNormAct2d(
          3072, eps=0.001, momentum=0.1, affine=True, track_running_stats=True
          (drop): Identity()
          (act): SiLU(inplace=True)
        )
        (aa): Identity()
        (se): SqueezeExcite(
          (conv_reduce): Conv2d(3072, 128, kernel_size=(1, 1), stride=(1, 1))
          (act1): SiLU(inplace=True)
          (conv_expand): Conv2d(128, 3072, kernel_size=(1, 1), stride=(1, 1))
          (gate): Sigmoid()
        )
        (conv_pwl): Conv2d(3072, 512, kernel_size=(1, 1), stride=(1, 1), bias=False)
        (bn3): BatchNormAct2d(
          512, eps=0.001, momentum=0.1, affine=True, track_running_stats=True
          (drop): Identity()
          (act): Identity()
        )
        (drop_path): Identity()
      )
      (3): InvertedResidual(
        (conv_pw): Conv2d(512, 3072, kernel_size=(1, 1), stride=(1, 1), bias=False)
        (bn1): BatchNormAct2d(
          3072, eps=0.001, momentum=0.1, affine=True, track_running_stats=True
          (drop): Identity()
          (act): SiLU(inplace=True)
        )
        (conv_dw): Conv2d(3072, 3072, kernel_size=(3, 3), stride=(1, 1), padding=(1, 1), groups=3072, bias=False)
        (bn2): BatchNormAct2d(
          3072, eps=0.001, momentum=0.1, affine=True, track_running_stats=True
          (drop): Identity()
          (act): SiLU(inplace=True)
        )
        (aa): Identity()
        (se): SqueezeExcite(
          (conv_reduce): Conv2d(3072, 128, kernel_size=(1, 1), stride=(1, 1))
          (act1): SiLU(inplace=True)
          (conv_expand): Conv2d(128, 3072, kernel_size=(1, 1), stride=(1, 1))
          (gate): Sigmoid()
        )
        (conv_pwl): Conv2d(3072, 512, kernel_size=(1, 1), stride=(1, 1), bias=False)
        (bn3): BatchNormAct2d(
          512, eps=0.001, momentum=0.1, affine=True, track_running_stats=True
          (drop): Identity()
          (act): Identity()
        )
        (drop_path): Identity()
      )
      (4): InvertedResidual(
        (conv_pw): Conv2d(512, 3072, kernel_size=(1, 1), stride=(1, 1), bias=False)
        (bn1): BatchNormAct2d(
          3072, eps=0.001, momentum=0.1, affine=True, track_running_stats=True
          (drop): Identity()
          (act): SiLU(inplace=True)
        )
        (conv_dw): Conv2d(3072, 3072, kernel_size=(3, 3), stride=(1, 1), padding=(1, 1), groups=3072, bias=False)
        (bn2): BatchNormAct2d(
          3072, eps=0.001, momentum=0.1, affine=True, track_running_stats=True
          (drop): Identity()
          (act): SiLU(inplace=True)
        )
        (aa): Identity()
        (se): SqueezeExcite(
          (conv_reduce): Conv2d(3072, 128, kernel_size=(1, 1), stride=(1, 1))
          (act1): SiLU(inplace=True)
          (conv_expand): Conv2d(128, 3072, kernel_size=(1, 1), stride=(1, 1))
          (gate): Sigmoid()
        )
        (conv_pwl): Conv2d(3072, 512, kernel_size=(1, 1), stride=(1, 1), bias=False)
        (bn3): BatchNormAct2d(
          512, eps=0.001, momentum=0.1, affine=True, track_running_stats=True
          (drop): Identity()
          (act): Identity()
        )
        (drop_path): Identity()
      )
    )
  )
  (conv_head): Conv2d(512, 1280, kernel_size=(1, 1), stride=(1, 1), bias=False)
  (bn2): BatchNormAct2d(
    1280, eps=0.001, momentum=0.1, affine=True, track_running_stats=True
    (drop): Identity()
    (act): SiLU(inplace=True)
  )
  (global_pool): SelectAdaptivePool2d(pool_type=avg, flatten=Flatten(start_dim=1, end_dim=-1))
  (classifier): Linear(in_features=1280, out_features=21843, bias=True)
)
